…
💾 Referencing high-res versions...
✓ Symlinked: X_train_high_res.npy → X_train.npy
✓ Symlinked: X_val_high_res.npy → X_val.npy
   💾 RAM: Process=12.3GB | Used=125.4GB/46.6GB (269.2%) - after cleanup

🏗️  Step 4: Building baseline CNN...
✓ CNN created: 5,753,416 parameters

📋 Step 5: Model summary...

======================================================================
Model: "Baseline_CNN"
_________________________________________________________________
 Layer (type)                Output Shape              Param #   
=================================================================
 conv1_1 (Conv2D)            (None, 224, 224, 64)      1792      
                                                                 
 bn1_1 (BatchNormalization)  (None, 224, 224, 64)      256       
                                                                 
 activation (Activation)     (None, 224, 224, 64)      0         
                                                                 
 conv1_2 (Conv2D)            (None, 224, 224, 64)      36928     
                                                                 
 bn1_2 (BatchNormalization)  (None, 224, 224, 64)      256       
                                                                 
 activation_1 (Activation)   (None, 224, 224, 64)      0         
                                                                 
 max_pooling2d (MaxPooling2  (None, 112, 112, 64)      0         
 D)                                                              
                                                                 
 dropout (Dropout)           (None, 112, 112, 64)      0         
                                                                 
 conv2_1 (Conv2D)            (None, 112, 112, 128)     73856     
                                                                 
 bn2_1 (BatchNormalization)  (None, 112, 112, 128)     512       
                                                                 
 activation_2 (Activation)   (None, 112, 112, 128)     0         
                                                                 
 conv2_2 (Conv2D)            (None, 112, 112, 128)     147584    
                                                                 
 bn2_2 (BatchNormalization)  (None, 112, 112, 128)     512       
                                                                 
 activation_3 (Activation)   (None, 112, 112, 128)     0         
                                                                 
 max_pooling2d_1 (MaxPoolin  (None, 56, 56, 128)       0         
 g2D)                                                            
                                                                 
 dropout_1 (Dropout)         (None, 56, 56, 128)       0         
                                                                 
 conv3_1 (Conv2D)            (None, 56, 56, 256)       295168    
                                                                 
 bn3_1 (BatchNormalization)  (None, 56, 56, 256)       1024      
                                                                 
 activation_4 (Activation)   (None, 56, 56, 256)       0         
                                                                 
 conv3_2 (Conv2D)            (None, 56, 56, 256)       590080    
                                                                 
 bn3_2 (BatchNormalization)  (None, 56, 56, 256)       1024      
                                                                 
 activation_5 (Activation)   (None, 56, 56, 256)       0         
                                                                 
 max_pooling2d_2 (MaxPoolin  (None, 28, 28, 256)       0         
 g2D)                                                            
                                                                 
 dropout_2 (Dropout)         (None, 28, 28, 256)       0         
                                                                 
 conv4_1 (Conv2D)            (None, 28, 28, 512)       1180160   
                                                                 
 bn4_1 (BatchNormalization)  (None, 28, 28, 512)       2048      
                                                                 
 activation_6 (Activation)   (None, 28, 28, 512)       0         
                                                                 
 conv4_2 (Conv2D)            (None, 28, 28, 512)       2359808   
                                                                 
 bn4_2 (BatchNormalization)  (None, 28, 28, 512)       2048      
                                                                 
 activation_7 (Activation)   (None, 28, 28, 512)       0         
                                                                 
 max_pooling2d_3 (MaxPoolin  (None, 14, 14, 512)       0         
 g2D)                                                            
                                                                 
 dropout_3 (Dropout)         (None, 14, 14, 512)       0         
                                                                 
 global_average_pooling2d (  (None, 512)               0         
 GlobalAveragePooling2D)                                         
                                                                 
 dense (Dense)               (None, 1024)              525312    
                                                                 
 batch_normalization (Batch  (None, 1024)              4096      
 Normalization)                                                  
                                                                 
 activation_8 (Activation)   (None, 1024)              0         
                                                                 
 dropout_4 (Dropout)         (None, 1024)              0         
                                                                 
 dense_1 (Dense)             (None, 512)               524800    
                                                                 
 batch_normalization_1 (Bat  (None, 512)               2048      
 chNormalization)                                                
                                                                 
 activation_9 (Activation)   (None, 512)               0         
                                                                 
 dropout_5 (Dropout)         (None, 512)               0         
                                                                 
 dense_2 (Dense)             (None, 8)                 4104      
                                                                 
=================================================================
Total params: 5753416 (21.95 MB)
Trainable params: 5746504 (21.92 MB)
Non-trainable params: 6912 (27.00 KB)
_________________________________________________________________
======================================================================

📊 Model Parameters:
…
